
  4%|██████████▊                                                                                                                                                                                                                                                                    | 4/100 [00:02<00:43,  2.22it/s]
Network(
  (encoders): ModuleList(
    (0): Encoder(
      (encoder): Sequential(
        (0): Linear(in_features=784, out_features=500, bias=True)
        (1): ReLU()
        (2): Linear(in_features=500, out_features=500, bias=True)
        (3): ReLU()
        (4): Linear(in_features=500, out_features=2000, bias=True)
        (5): ReLU()
        (6): Linear(in_features=2000, out_features=512, bias=True)
      )
    )
    (1): Encoder(
      (encoder): Sequential(
        (0): Linear(in_features=784, out_features=500, bias=True)
        (1): ReLU()
        (2): Linear(in_features=500, out_features=500, bias=True)
        (3): ReLU()
        (4): Linear(in_features=500, out_features=2000, bias=True)
        (5): ReLU()
        (6): Linear(in_features=2000, out_features=512, bias=True)
      )
    )
    (2): Encoder(
      (encoder): Sequential(
        (0): Linear(in_features=784, out_features=500, bias=True)
        (1): ReLU()
        (2): Linear(in_features=500, out_features=500, bias=True)
        (3): ReLU()
        (4): Linear(in_features=500, out_features=2000, bias=True)
        (5): ReLU()
        (6): Linear(in_features=2000, out_features=512, bias=True)
      )
    )
  )
  (decoders): ModuleList(
    (0): Decoder(
      (decoder): Sequential(
        (0): Linear(in_features=512, out_features=2000, bias=True)
        (1): ReLU()
        (2): Linear(in_features=2000, out_features=500, bias=True)
        (3): ReLU()
        (4): Linear(in_features=500, out_features=500, bias=True)
        (5): ReLU()
        (6): Linear(in_features=500, out_features=784, bias=True)
      )
    )
    (1): Decoder(
      (decoder): Sequential(
        (0): Linear(in_features=512, out_features=2000, bias=True)
        (1): ReLU()
        (2): Linear(in_features=2000, out_features=500, bias=True)
        (3): ReLU()
        (4): Linear(in_features=500, out_features=500, bias=True)
        (5): ReLU()
        (6): Linear(in_features=500, out_features=784, bias=True)
      )
    )
    (2): Decoder(
      (decoder): Sequential(
        (0): Linear(in_features=512, out_features=2000, bias=True)
        (1): ReLU()
        (2): Linear(in_features=2000, out_features=500, bias=True)
        (3): ReLU()
        (4): Linear(in_features=500, out_features=500, bias=True)
        (5): ReLU()
        (6): Linear(in_features=500, out_features=784, bias=True)
      )
    )
  )
  (feature_contrastive_module): Sequential(
    (0): Linear(in_features=512, out_features=128, bias=True)
  )
  (clustering_module): Sequential(
    (0): Linear(in_features=512, out_features=10, bias=True)
  )
)
Pre_training ...
Loss:0.294318
Loss:0.196487
Loss:0.161022
Loss:0.119817
Loss:0.108820
Loss:0.101489
Loss:0.093003
Loss:0.085107
Loss:0.077893

 10%|███████████████████████████                                                                                                                                                                                                                                                   | 10/100 [00:04<00:34,  2.57it/s]
…
