Traceback (most recent call last):
  File "train.py", line 109, in <module>
    for i in tqdm(range(args.pre_epochs)):
TypeError: 'module' object is not callable
Network(
  (encoders): ModuleList(
    (0): Encoder(
      (encoder): Sequential(
        (0): Linear(in_features=784, out_features=500, bias=True)
        (1): ReLU()
        (2): Linear(in_features=500, out_features=500, bias=True)
        (3): ReLU()
        (4): Linear(in_features=500, out_features=2000, bias=True)
        (5): ReLU()
        (6): Linear(in_features=2000, out_features=512, bias=True)
      )
    )
    (1): Encoder(
      (encoder): Sequential(
        (0): Linear(in_features=784, out_features=500, bias=True)
        (1): ReLU()
        (2): Linear(in_features=500, out_features=500, bias=True)
        (3): ReLU()
        (4): Linear(in_features=500, out_features=2000, bias=True)
        (5): ReLU()
        (6): Linear(in_features=2000, out_features=512, bias=True)
      )
    )
  )
  (decoders): ModuleList(
    (0): Decoder(
      (decoder): Sequential(
        (0): Linear(in_features=512, out_features=2000, bias=True)
        (1): ReLU()
        (2): Linear(in_features=2000, out_features=500, bias=True)
        (3): ReLU()
        (4): Linear(in_features=500, out_features=500, bias=True)
        (5): ReLU()
        (6): Linear(in_features=500, out_features=784, bias=True)
      )
    )
    (1): Decoder(
      (decoder): Sequential(
        (0): Linear(in_features=512, out_features=2000, bias=True)
        (1): ReLU()
        (2): Linear(in_features=2000, out_features=500, bias=True)
        (3): ReLU()
        (4): Linear(in_features=500, out_features=500, bias=True)
        (5): ReLU()
        (6): Linear(in_features=500, out_features=784, bias=True)
      )
    )
  )
  (feature_contrastive_module): Sequential(
    (0): Linear(in_features=512, out_features=128, bias=True)
  )
  (clustering_module): Sequential(
    (0): Linear(in_features=512, out_features=10, bias=True)
  )
)
Pre_training ...